…
 - 57s - loss: 0.0536 - accuracy: 0.9793 - val_loss: 0.3225 - val_accuracy: 0.9282
Epoch 48/50
 - 56s - loss: 0.0550 - accuracy: 0.9800 - val_loss: 0.3222 - val_accuracy: 0.9273
Epoch 49/50
 - 56s - loss: 0.0517 - accuracy: 0.9800 - val_loss: 0.3099 - val_accuracy: 0.9316
Epoch 50/50
 - 56s - loss: 0.0508 - accuracy: 0.9809 - val_loss: 0.3144 - val_accuracy: 0.9335

The MNIST Sequential fully connected model
Model: "sequential_1"
_________________________________________________________________
Layer (type)                 Output Shape              Param #
=================================================================
flatten_1 (Flatten)          (None, 784)               0
_________________________________________________________________
dense_1 (Dense)              (None, 512)               401920
_________________________________________________________________
dense_2 (Dense)              (None, 10)                5130
=================================================================
Total params: 407,050
Trainable params: 407,050
Non-trainable params: 0
_________________________________________________________________
None

The MNIST Cov2Dnet Model
Model: "sequential_1"
_________________________________________________________________
Layer (type)                 Output Shape              Param #
=================================================================
conv2d_1 (Conv2D)            (None, 26, 26, 32)        320
_________________________________________________________________
activation_1 (Activation)    (None, 26, 26, 32)        0
_________________________________________________________________
conv2d_2 (Conv2D)            (None, 24, 24, 64)        18496
_________________________________________________________________
max_pooling2d_1 (MaxPooling2 (None, 12, 12, 64)        0
_________________________________________________________________
dropout_1 (Dropout)          (None, 12, 12, 64)        0
_________________________________________________________________
flatten_1 (Flatten)          (None, 9216)              0
_________________________________________________________________
dense_1 (Dense)              (None, 128)               1179776
_________________________________________________________________
activation_2 (Activation)    (None, 128)               0
_________________________________________________________________
dropout_2 (Dropout)          (None, 128)               0
_________________________________________________________________
dense_2 (Dense)              (None, 10)                1290
_________________________________________________________________
activation_3 (Activation)    (None, 10)                0
=================================================================
Total params: 1,199,882
Trainable params: 1,199,882
Non-trainable params: 0
_________________________________________________________________
None




__CIFAR-10__
x_train shape: (50000, 32, 32, 3)
50000 train samples
10000 test samples
Num of labels in data: 50000
The labels...: [[6]
 [9]
 [9]
 ...
 [9]
 [1]
 [1]]
The test set contains this amount of data: 10000
…
